BasketBoyPredictor.pth (torch, 21145 bytes, 6 tensors)

0.weight f4 [64, 2]
0	0xbe77faf2	-0.24216822
1	0x3e8ddc2f	0.2770705
2	0x3ce66100	0.028122425
3	0xbeae5da1	-0.34055808
4	0x3ec20652	0.37895447
5	0x3ee504d3	0.44730243
6	0xbe4e2e34	-0.20134813
7	0x3edd0ada	0.43172342
8	0xbf2e5a0a	-0.6810614
9	0xbe87c3f6	-0.26516694
10	0x3e608648	0.21926224
11	0xbc86ffe8	-0.016479447
12	0xbf1b99ba	-0.60781443
13	0x3ee57465	0.44815364
14	0xbec4568b	-0.38347277
15	0xbf2a48c0	-0.6651726
16	0xbb7881ad	-0.003791909
17	0xbef951c3	-0.48695192
18	0xbdc84d50	-0.09780371
19	0x3f2e3cd9	0.68061596
20	0x3f0d78e4	0.5526259
21	0xbf11a12c	-0.56886554
22	0x3efde222	0.49586588
23	0xbe5d6980	-0.21622276
24	0x3c878740	0.016543984
25	0xbe51bb74	-0.20481664
26	0xbf34c32d	-0.70610315
27	0xbd26d38d	-0.040729094
28	0xbf123f5c	-0.5712793
29	0xbf347d70	-0.705039
30	0xbef5723c	-0.47938716
31	0xbee7150a	-0.4513324
32	0x3e84d74d	0.2594551
33	0x3f07dd04	0.5307162
34	0xbd8f45b0	-0.06995714
35	0xbecf4e43	-0.40489396
36	0xbe812867	-0.25226137
37	0x3ee2612a	0.44214755
38	0x3f10b033	0.5651886
39	0xbd311292	-0.0432306
40	0x3e292200	0.16516876
41	0xbd2d6810	-0.04233557
42	0x3ead08ca	0.33795768
43	0xbe31c0ff	-0.17358778
44	0xbef638ef	-0.48090312
45	0x3f161671	0.5862799
46	0xbf09b5aa	-0.5379282
47	0xbe97d927	-0.29657862
48	0xbc9a5be8	-0.018842652
49	0x3f21c88c	0.63196635
50	0x3e3e5b84	0.18589598
51	0x3e66567e	0.22493932
52	0xbf09154c	-0.5354812
53	0x3e430e83	0.19048505
54	0x3f072dc3	0.528042
55	0x3ecfca6b	0.4058412
56	0xbe77c364	-0.2419563
57	0xba0e7cac	-0.00054354477
58	0x3e030a9d	0.12797017
59	0x3c38b4b7	0.0112735545
60	0x3ec71966	0.38886565
61	0xbd8da9e0	-0.06917167
62	0xbec2b460	-0.3802824
63	0xbd4e6980	-0.05039358
64	0xbe000ecc	-0.12505645
65	0x3e91bc04	0.28463757
66	0xbe9bc10e	-0.30420727
67	0xbe2b2580	-0.16713524
68	0xbe933e01	-0.28758243
69	0x3ece86d2	0.40337235
70	0xbe62a11b	-0.2213177
71	0x3f13dcd5	0.5775884
72	0xbe38bc57	-0.18040596
73	0x3f0ad29a	0.542276
74	0x3e90fdc0	0.28318596
75	0x3e6075d8	0.21919954
76	0xbd87bfc8	-0.06628376
77	0xbeba001b	-0.36328205
78	0xbe99f6d7	-0.30071136
79	0x3edc781e	0.43060392
80	0xbe27c2dc	-0.16382927
81	0xbeb5375a	-0.35393792
82	0x3eac40b4	0.33643115
83	0x3dc0f0fa	0.09420963
84	0xbf11a7b6	-0.5689653
85	0x3ed2c445	0.41165367
86	0xbd86b248	-0.06576973
87	0x3f363adc	0.7118356
88	0xbdef6780	-0.11689663
89	0xbdd8f152	-0.10592903
90	0x3f1e3172	0.617942
91	0x3f0d2991	0.5514155
92	0xbf0bedb4	-0.5465958
93	0xbeb493a6	-0.35268897
94	0xbee2c3a5	-0.4428989
95	0xbe472fa8	-0.19451773
96	0x3d956170	0.07293975
97	0x3e3ae0a4	0.18249756
98	0xbe350a87	-0.17679797
99	0xbe611c36	-0.21983418
100	0xbf11369b	-0.56723946
101	0x3f28bf8d	0.65917283
102	0xbec51061	-0.3848906
103	0x3cbeb160	0.023277938
104	0x3f1b89ac	0.60756946
105	0x3e84540c	0.25845373
106	0x3e9bc236	0.3042161
107	0xbeaff7d7	-0.34368774
108	0xbea8ed3f	-0.32993504
109	0xbefd35de	-0.4945516
110	0x3f06e652	0.5269519
111	0xbe886696	-0.26640767
112	0xbe9a8bbd	-0.30184737
113	0x3bbf1e00	0.0058324337
114	0xbf30073e	-0.6876105
115	0x3e7ee864	0.24893337
116	0x3de5d68b	0.112225614
117	0x3eb2b26f	0.3490176
118	0xbf33c3f3	-0.7022087
119	0xbe14b3a0	-0.14521646
120	0xbeced455	-0.4039637
121	0xbf1a74fc	-0.60334754
122	0x3f2b187f	0.66834253
123	0xbe8ea388	-0.2785914
124	0x3e94953a	0.290201
125	0x3ea2cfc4	0.31799138
126	0xbef7a3a6	-0.4836704
127	0x3f0891c1	0.533474

0.bias f4 [64]
0	0x3ed758be	0.42059892
1	0xbf2a3d48	-0.6649976
2	0xbcdea2e9	-0.027177291
3	0xbf2e9c3e	-0.68207157
4	0x3f091a45	0.5355571
5	0x3ddf01c5	0.108890094
6	0x3f06f409	0.5271612
7	0xbccfe4c0	-0.025377631
8	0x3e7b6dcd	0.24553604
9	0xbf2a2ab3	-0.66471404
10	0x3e1cc055	0.15307744
11	0xbeba01f3	-0.36329612
12	0xbe9419bd	-0.28925887
13	0x3ef52f12	0.47887474
14	0xbed654f5	-0.41861692
15	0x3e1eb830	0.1549995
16	0xbe1f2245	-0.15540417
17	0xbecf3713	-0.40471706
18	0xbef0a9ea	-0.47004634
19	0x3e3f0a61	0.18656303
20	0xbefaa525	-0.4895412
21	0x3e82bbc2	0.25533873
22	0x3e5b04d7	0.21388565
23	0xbd7f86b0	-0.062384307
24	0x3dc84036	0.09777872
25	0x3f138614	0.5762646
26	0x3ed4f9dc	0.41596878
27	0xbe828bf1	-0.25497392
28	0x3f2768b6	0.6539415
29	0x3f0be0ee	0.5464009
30	0xbed4ac6d	-0.415378
31	0x3d217cc0	0.03942561
32	0xbf09981c	-0.53747725
33	0xbeb23df7	-0.348129
34	0xbe2d936c	-0.16950768
35	0x3ea63c38	0.32467818
36	0x3f247cce	0.64252937
37	0xbf2e38dd	-0.68055516
38	0xbf21b895	-0.63172275
39	0xbf3328b8	-0.69984007
40	0xbf1aad46	-0.60420644
41	0x3f3125aa	0.69198096
42	0x3ef7b8f6	0.48383301
43	0x3d78f6bc	0.06078218
44	0x3f22eb21	0.6364003
45	0x3e715243	0.23566537
46	0x3f214e0e	0.63009727
47	0xbda23760	-0.07920718
48	0xbe92ba0e	-0.28657573
49	0x3f338454	0.7012379
50	0x3e862dca	0.2620681
51	0xbf1caea0	-0.61203957
52	0x3e6bc02d	0.23022528
53	0xbf2403cc	-0.64068294
54	0xbe58b530	-0.21162868
55	0x3e6d2a16	0.23160586
56	0xbda193f8	-0.07889551
57	0x3cc638c0	0.024196982
58	0x3ec5ce43	0.38633928
59	0xbf2e037a	-0.67974055
60	0x3ec5a229	0.3860028
61	0x3e866ff1	0.2625728
62	0x3d832cd1	0.064050324
63	0xbebf3f4d	-0.37352982

2.weight f4 [64, 64]
0	0x3cfcb369	0.030847268
1	0x3d0f15d4	0.034932926
2	0x3d310d38	0.043225497
3	0x3c8262d8	0.015916273
4	0x3dc24edf	0.094877
5	0x3d9fe965	0.07808188
6	0xbcd62716	-0.026141685
7	0xbd155d90	-0.03646618
8	0xbd3bc750	-0.045844376
9	0x3cd91d00	0.026503086
10	0x3d8844a2	0.06653716
11	0xbdde7a32	-0.10863151
12	0xbd5f3b7c	-0.054500088
13	0xbdce3cac	-0.10070166
14	0xbdcb6ce4	-0.099328786
15	0x3cc24b58	0.023717567
16	0x3da33f23	0.07971027
17	0xbdd85efe	-0.10564993
18	0x3d0b8ff8	0.034072846
19	0xbcf6ee58	-0.030142948
20	0xbd983692	-0.074322835
21	0x3d8b1166	0.06790428
22	0xbd8c1ec3	-0.06841805
23	0x3c4b3f00	0.012405157
24	0x3dc32644	0.09528783
25	0x3cb5a428	0.022173002
26	0x3dfc157d	0.12308786
27	0xbd85dde5	-0.06536464
28	0xbcc32221	-0.023819985
29	0xbd7f7e46	-0.062376283
30	0xbdbe2a8c	-0.09285459
31	0x3dddfdee	0.10839449
32	0xbd9a2126	-0.07525854
33	0x3c3be6b0	0.011468574
34	0x3deed556	0.11661784
35	0xbd92140d	-0.07132731
36	0x3d8f3a9c	0.06993601
37	0xbda3e18e	-0.080020055
38	0xbd0d52bc	-0.03450273
39	0x3b945d20	0.004527703
40	0xbdc10fec	-0.09426865
41	0xbd1a064d	-0.037603665
42	0xbd853397	-0.065039806
43	0x3dc7397c	0.09727761
44	0xbdad16d5	-0.084516205
45	0xbd963f23	-0.07336261
46	0xbc53337d	-0.012890694
47	0x3dbfe5ae	0.0936998
48	0x3defe70c	0.117139906
49	0xbcaeb49d	-0.021326357
50	0xbd2117a5	-0.03932919
51	0x3de718a0	0.11283994
52	0xbc948569	-0.018130021
53	0x3dfb0de0	0.12258506
54	0xbd46063c	-0.04834579
55	0x3c97cd70	0.018530577
56	0x3df5d29c	0.12003061
57	0x3dc676c2	0.0969062
58	0x3dbd1795	0.092330135
59	0x3cd34220	0.025788367
60	0x3dc4d9a6	0.09611826
61	0xbbbe0ffd	-0.005800246
62	0xbd7f8d74	-0.06239076
63	0x3dd35b0a	0.10320099
64	0x3d6add8a	0.057340182
65	0xbd0ac664	-0.033880606
66	0xbd7d8a5a	-0.06189952
67	0x3dc0055c	0.09376022
68	0x3de66654	0.11249986
69	0x3d61177f	0.05495405
70	0xbd55d0df	-0.052201148
71	0xbde63782	-0.11241056
72	0x3cb1e587	0.021715892
73	0x3db60b9c	0.08888933
74	0x3cd678ec	0.026180707
75	0x3d2037a8	0.039115578
76	0x3d7ee0cc	0.0622261
77	0x3ce1ea9e	0.027577695
78	0xbd4e7c2c	-0.05041139
79	0x3d81f676	0.06345837
80	0x3dcc782a	0.09983857
81	0x3dcf25ae	0.10114609
82	0x3d758424	0.059940472
83	0x3e008919	0.12552299
84	0xbd904044	-0.07043508
85	0x3db9f1cb	0.090793215
86	0x3dca6769	0.09883005
87	0x3cc7e068	0.024398997
88	0x3d134d0d	0.035962153
89	0xbdb0a95d	-0.086260535
90	0x3d997665	0.07493285
91	0x3c6efd58	0.014586769
92	0x3cd00cdc	0.025396757
93	0x3d6c5403	0.057697307
94	0x3d526d04	0.051373497
95	0x3dbf42aa	0.09338887
96	0xbc97a660	-0.018511951
97	0x3dcf6008	0.101257384
98	0x3cb8e098	0.022568032
99	0x3d42412c	0.047425434
100	0x3d3d6eda	0.046248294
101	0xbcf8daa0	-0.030377686
102	0x3c32c2c0	0.01091069
103	0x3dad284e	0.08454953
104	0x3d8800ae	0.06640755
105	0x3ddc34c2	0.1075225
106	0x3cce406d	0.025177205
107	0xbd9270bf	-0.07150411
108	0xbd704709	-0.058661494
109	0x3db0f6b6	0.086408064
110	0xbd6f519f	-0.05842745
111	0xbdfe9f96	-0.12432782
112	0xbd7d0e48	-0.061781198
113	0xbdf945a8	-0.12171489
114	0x3cc8e552	0.024523411
115	0x3d2994b4	0.04140158
116	0xbdd9922d	-0.10623584
117	0xbd82ecce	-0.06392823
118	0xbdc8b3f2	-0.09799947
119	0xbbf37936	-0.007430221
120	0xbdf540f8	-0.119752824
121	0xbc60e400	-0.013726234
122	0x3d18b02f	0.037277397
123	0xbdbc63bc	-0.0919871
124	0x3d1e71ad	0.03868263
125	0x3d7c222d	0.06155603
126	0xbd509d6a	-0.05093137
127	0x3d5ad450	0.053425133
128	0xbd9800aa	-0.07422002
129	0xbdf12b1a	-0.11775799
130	0x3cc79767	0.024364186
131	0x3cde6ac8	0.027150527
132	0xbbe338dd	-0.006934269
133	0x3dc3d025	0.09561185
134	0x3da61f72	0.081114665
135	0xbd58aad4	-0.05289729
136	0xbdb2a42c	-0.087227196
137	0x3dbf69a4	0.09346321
138	0x3d256953	0.040383648
139	0x3dbcb7ba	0.092147306
140	0xbdd20d26	-0.10256414
141	0x3cd7d963	0.026348775
142	0xbc8fe968	-0.017567351
143	0x3df86292	0.12128176
144	0x3cd61e8f	0.026137618
145	0x3a596c00	0.00082939863
146	0xbd718238	-0.058962077
147	0x3da7cdd3	0.08193555
148	0x3cbba648	0.022906438
149	0x3d2047cb	0.039130967
150	0x3badb17c	0.005300699
151	0xbda8a662	-0.0823486
152	0x3dad0742	0.0844865
153	0xbc0293ae	-0.00796978
154	0xbdaea925	-0.085283555
155	0xbdc13d61	-0.09435535
156	0x3db3b4ee	0.08774744
157	0xbcf1bda4	-0.029509373
158	0xbdac389c	-0.08409235
159	0xbcab7218	-0.020928428
160	0x3de24c6c	0.110497326
161	0x3df5c720	0.12000871
162	0xbdfd1ac2	-0.12358619
163	0x3d96f0dc	0.07370159
164	0x3d1d3381	0.038379196
165	0xbce1cec8	-0.027564421
166	0xbdc3e39a	-0.09564896
167	0xbdca7d08	-0.09887129
168	0x3d6b24b4	0.05740805
169	0xbbb320f9	-0.005466577
170	0x3da07221	0.07834268
171	0x3a04e8b9	0.0005070079
172	0xbc5e5f09	-0.013572463
173	0xbcd93f83	-0.026519543
174	0x3d7a0885	0.06104328
175	0xbd48a6dc	-0.048987255
176	0x3deb62f0	0.1149348
177	0xbdf77bd2	-0.12084164
178	0x3d0e248f	0.034702834
179	0x3dc42bda	0.095786765
180	0xbddb5f4a	-0.10711534
181	0x3dcd59fe	0.1002693
182	0xbd9601a8	-0.07324535
183	0x3d112ee5	0.035445113
184	0xbdb4ce2c	-0.08828387
185	0xbd1a29a4	-0.037637368
186	0xbd4c9832	-0.049949832
187	0xbd59e154	-0.053193405
188	0xbadbf856	-0.0016782384
189	0x3cde96ea	0.02717157
190	0x3db505f3	0.08839025
191	0xbddc35f0	-0.10752475
192	0xbda0de18	-0.07854861
193	0xbd80cfd8	-0.06289643
194	0xbce03260	-0.02736777
195	0xbd223878	-0.039604634
196	0x3d908cd8	0.07058114
197	0xbddcbb3e	-0.10777901
198	0x3b48d280	0.0030643046
199	0x3c8172a8	0.015801743
200	0x3df7043a	0.12061353
201	0x3d1e2bbc	0.038615927
202	0x3dfa71de	0.1222875
203	0x3da74f42	0.08169414
204	0x3dea53a8	0.114417374
205	0xbd7f5f3c	-0.062346682
206	0x3d968744	0.073500186
207	0xbdfa68f0	-0.122270465
208	0xbd217dbc	-0.03942655
209	0xbd430138	-0.047608584
210	0x3d44bf3c	0.048033938
211	0xbcd11c88	-0.0255263
212	0x3dc6cc68	0.09706956
213	0x3cdaf3c8	0.026727572
214	0x3d27e3bc	0.04098867
215	0xbded03c8	-0.11572987
216	0xbdd8f1e6	-0.105930135
217	0x3ddd3408	0.1080094
218	0x3bab10c0	0.0052205026
219	0x3da29960	0.0793941
220	0xbbba0fc0	-0.005678147
221	0x3dc864b4	0.097848326
222	0x3d64d8f0	0.05587095
223	0xbdf719a8	-0.120654404
224	0xbdace746	-0.084425494
225	0xbcc55828	-0.024089888
226	0xbc608660	-0.0137039125
227	0xbd47b414	-0.04875572
228	0xbc6aa4b0	-0.014321491
229	0x3cb35648	0.021891728
230	0xbadcff00	-0.0016860664
231	0xbdd58880	-0.10426426
232	0x3d5f79e0	0.05455959
233	0xbc9ba300	-0.018998623
234	0x3dad7696	0.08469884
235	0xbbbc4020	-0.005744949
236	0x3d76e268	0.06027451
237	0xbddd5618	-0.10807437
238	0x3d8bd1d6	0.068271324
239	0x3dabfa2a	0.083973244
240	0xbda2f564	-0.07956961
241	0x3df72e58	0.12069386
242	0xbd85ab60	-0.06526828
243	0x3da26950	0.07930243
244	0xbc805dd8	-0.015669748
245	0x3de2a8b4	0.11067334
246	0x3d71e758	0.059058517
247	0xbd022664	-0.031774893
248	0x3d80f5a4	0.06296852
249	0x3d6f06ec	0.05835621
250	0xbdf266bc	-0.11836001
251	0xbda653a4	-0.08121422
252	0xbddfa1bc	-0.1091952
253	0xbd7e4ff8	-0.062087983
254	0xbba9c9c0	-0.005181521
255	0xbbe0b420	-0.00685741

2.bias f4 [64]
0	0x3cabde1e	0.020979937
1	0x3cf09f91	0.029372962
2	0xbe001e97	-0.12511669
3	0xbd2ae8c4	-0.04172589
4	0xbdcaba1a	-0.09898777
5	0xbcd5629a	-0.026047993
6	0x3d841c16	0.064506695
7	0x3da5b984	0.08092025
8	0xbbdcd1c0	-0.0067388713
9	0x3de7f2ba	0.11325593
10	0xbd3c0760	-0.04590547
11	0x3dff4b57	0.12465542
12	0x3dceb72f	0.10093533
13	0xbb12d440	-0.0022404343
14	0x3dcb743a	0.09934278
15	0xbdf73a6e	-0.120716915
16	0x3d20e25a	0.039278366
17	0xbc9a5700	-0.018840313
18	0xbdd8ea9c	-0.10591623
19	0x3b873360	0.0041259974
20	0xbdf78ce2	-0.12087418
21	0xbd2c32bf	-0.042040583
22	0xbd976840	-0.07392931
23	0xbcce4920	-0.025181353
24	0x3cbeaf98	0.023277089
25	0xbcee8f40	-0.029121041
26	0xbd8e5bf0	-0.069511294
27	0x3dd6dd5b	0.10491439
28	0x3c1fd920	0.0097563565
29	0x3dd9b78f	0.10630714
30	0x3df45ac0	0.11931372
31	0x3c3b5d5b	0.011435832
32	0x3d3afb2f	0.045649704
33	0xbd5a2a2c	-0.053262874
34	0x3d2db6e3	0.042410742
35	0xbd949c02	-0.07256319
36	0xbdd15fdf	-0.10223364
37	0x3d27d736	0.040976726
38	0xbd0015fc	-0.031270966
39	0x3d3fb160	0.046800017
40	0xbdc7d01e	-0.09756492
41	0xbd33d898	-0.04390773
42	0xbb8592d8	-0.004076343
43	0xbb8ae920	-0.0042392164
44	0x3d403dac	0.046933815
45	0xbd098d87	-0.033582237
46	0x3bc5b5c9	0.0060336334
47	0xbc955478	-0.018228754
48	0xbd590fbc	-0.05299352
49	0x3dec57a3	0.11540153
50	0x3d1e8c02	0.03870774
51	0x3d7d5a90	0.061853945
52	0xbdee5bef	-0.11638629
53	0x3dca6fff	0.09884643
54	0xbda9803e	-0.082764134
55	0x3da7f2fe	0.08200644
56	0x3ca98708	0.02069427
57	0xbcadcbf8	-0.021215424
58	0xbdcf823c	-0.10132262
59	0xbd6ff184	-0.058579937
60	0x3de9847a	0.11402221
61	0x3de01ff6	0.10943596
62	0x3cebac53	0.028768694
63	0x3cead247	0.028664721

4.weight f4 [2, 64]
0	0xbda50a8d	-0.08058653
1	0x3d4990c0	0.04921031
2	0xbdb7f66e	-0.089825496
3	0xbd0a0924	-0.033700123
4	0x3cc16848	0.023609295
5	0x3d4b1c76	0.04958769
6	0xbda1bbbb	-0.07897135
7	0x3c17b130	0.009258553
8	0x3eb07726	0.34465903
9	0xbd1dc394	-0.038516596
10	0x3bc7a8a0	0.0060930997
11	0x3c3caba6	0.011515534
12	0x3de7df58	0.11321896
13	0x3dab6716	0.083692715
14	0x3cf41678	0.02979587
15	0xbde65f10	-0.112486005
16	0xbdb83486	-0.08994393
17	0x3d66b204	0.056322113
18	0x3b88e100	0.0041772127
19	0x3c0c8b20	0.008578092
20	0xbe15c0be	-0.14624307
21	0xbde8027e	-0.113286
22	0x3d4f637e	0.050631993
23	0xbda51b1e	-0.08061813
24	0x3dc3e87c	0.09565827
25	0xbdb0bb12	-0.08629431
26	0xbda9a39a	-0.08283158
27	0xbdec2996	-0.115313694
28	0xb8d06800	-9.9375844e-05
29	0x3d05d2e9	0.032671843
30	0x3e3c81c3	0.18408875
31	0x3de0481e	0.10951255
32	0x3dbded2e	0.09273754
33	0xbd120fd4	-0.035659626
34	0x3dee21f1	0.116275676
35	0x3d72327c	0.059130177
36	0x3d938067	0.07202225
37	0xbb5c7dfd	-0.003364443
38	0xbd9f5a8a	-0.07780941
39	0x3d8b7662	0.06809689
40	0x3dc977ec	0.098373264
41	0xbc5a3560	-0.01331839
42	0xbc98d261	-0.018655004
43	0xbdeaf3ca	-0.1147228
44	0x3dba34c0	0.090920925
45	0x3d519306	0.051165603
46	0xbd6afd9b	-0.057370763
47	0xbd059f84	-0.03262283
48	0xbbc3b8e0	-0.0059729666
49	0xbd72aae7	-0.059245016
50	0x3d3deb96	0.04636725
51	0xbd87c732	-0.0662979
52	0xbd9475f7	-0.072490625
53	0x3c3617f1	0.0111141065
54	0xbcce51b8	-0.02518545
55	0x3c40ae80	0.011760354
56	0xbd4465dc	-0.047948703
57	0x3c868730	0.016421884
58	0x3cf7c608	0.030245796
59	0xbd3bc0fc	-0.04583834
60	0xbdc22958	-0.09480542
61	0x3cd0b710	0.025477916
62	0x3d40447c	0.04694031
63	0x3e17a815	0.14810212
64	0xbdb3341c	-0.087501734
65	0xbc09fafd	-0.008421657
66	0xbdba0bd7	-0.090842895
67	0xbda86950	-0.08223212
68	0x3d0facc8	0.035076886
69	0xbd98a8f8	-0.07454103
70	0x3d80298f	0.06257927
71	0xbd9dbcee	-0.07702051
72	0xbd3944d9	-0.045231674
73	0xbdcc51e2	-0.099765554
74	0x3d99149e	0.074746355
75	0xbe0855fb	-0.13314049
76	0x3df4a44d	0.119454004
77	0x3dbe4394	0.09290233
78	0x3d6ef828	0.05834213
79	0x3d5db6dc	0.054129466
80	0xbda885ec	-0.082286686
81	0xbcc9c460	-0.024629772
82	0xbc05e8c0	-0.008173168
83	0x3d926acc	0.07149276
84	0x3db610b7	0.08889907
85	0x3d5e69df	0.054300185
86	0x3e3fd49f	0.18733452
87	0xbd96aa9c	-0.0735676
88	0x3d33f7d4	0.04393752
89	0x3df945c2	0.12171508
90	0x3ce771e0	0.028252542
91	0x3d58a0d0	0.052887738
92	0xbdc32470	-0.09528434
93	0xbe596083	-0.21228223
94	0xbe03cdbd	-0.12871452
95	0x3e50e4b4	0.20399743
96	0xbc3b2dc1	-0.011424483
97	0xbd494864	-0.049141303
98	0x3e5a868a	0.21340385
99	0x3b8aab60	0.0042318553
100	0x3d0363a7	0.032077458
101	0x3ca474fe	0.020075317
102	0x3d0b26bc	0.033972487
103	0xbd1b9c84	-0.03799106
104	0x3cd4d250	0.025979191
105	0x3cd18170	0.025574416
106	0x3df22677	0.11823743
107	0x3d92f65e	0.07175897
108	0xbe142bc0	-0.14469814
109	0x3e23f72a	0.16012254
110	0x3d9a7a11	0.075428136
111	0x3df3e14e	0.11908208
112	0xbc9421c0	-0.0180825
113	0x3d2c13e1	0.042011146
114	0x3d251de4	0.04031171
115	0xbddb6954	-0.10713449
116	0xbd291bce	-0.041286282
117	0x3d850953	0.06495919
118	0xbd328060	-0.04357946
119	0x3daee9a2	0.08540656
120	0x3dd3686e	0.10322653
121	0xbdff12b8	-0.12454742
122	0xbdfed8fa	-0.12443729
123	0x3de7600e	0.11297618
124	0xbe1dd9bb	-0.15415089
125	0x3dc1e7b4	0.09468022
126	0x3d264dfa	0.040601708
127	0xbdb3ba32	-0.08775748

4.bias f4 [2]
0	0x3e077754	0.13229114
1	0xbbf3884d	-0.00743202
